…
 executive', 'software engineer', 'solutions architect', 'teacher', 'ui ux designer', 'web developer']

  Input features (skills)   : 370
  Output classes            : 35
  Training samples          : 15588
  Train: 12470, Test: 3118

[5/9] Building model (TensorFlow Functional API)...
Model: "SkillMap_Career_Model_v3"
+--------------------------------------------------------------------------+
| Layer (type)                    | Output Shape           |       Param # |
|---------------------------------+------------------------+---------------|
| skill_input (InputLayer)        | (None, 370)            |             0 |
|---------------------------------+------------------------+---------------|
| hidden_1 (Dense)                | (None, 512)            |       189,952 |
|---------------------------------+------------------------+---------------|
| bn_1 (BatchNormalization)       | (None, 512)            |         2,048 |
|---------------------------------+------------------------+---------------|
| dropout_1 (Dropout)             | (None, 512)            |             0 |
|---------------------------------+------------------------+---------------|
| hidden_2 (Dense)                | (None, 256)            |       131,328 |
|---------------------------------+------------------------+---------------|
| bn_2 (BatchNormalization)       | (None, 256)            |         1,024 |
|---------------------------------+------------------------+---------------|
| dropout_2 (Dropout)             | (None, 256)            |             0 |
|---------------------------------+------------------------+---------------|
| hidden_3 (Dense)                | (None, 128)            |        32,896 |
|---------------------------------+------------------------+---------------|
| dropout_3 (Dropout)             | (None, 128)            |             0 |
|---------------------------------+------------------------+---------------|
| hidden_4 (Dense)                | (None, 64)             |         8,256 |
|---------------------------------+------------------------+---------------|
| career_output (Dense)           | (None, 35)             |         2,275 |
+--------------------------------------------------------------------------+
 Total params: 367,779 (1.40 MB)
 Trainable params: 366,243 (1.40 MB)
 Non-trainable params: 1,536 (6.00 KB)

[6/9] Training model...
Epoch 1/70

[1m  1/390[0m [37m====================[0m [1m19:39[0m 3s/step - accuracy: 0.0625 - loss: 4.0127
[1m 12/390[0m [37m====================[0m [1m2s[0m 6ms/step - accuracy: 0.0528 - loss: 3.8430  
…
