…
 executive', 'software engineer', 'solutions architect', 'teacher', 'ui ux designer', 'web developer']

  Input features (skills)   : 371
  Output classes            : 41
  Training samples          : 19791
  Train: 15832, Test: 3959

[5/9] Building model (TensorFlow Functional API)...
Model: "SkillMap_Career_Model_v3"
+--------------------------------------------------------------------------+
| Layer (type)                    | Output Shape           |       Param # |
|---------------------------------+------------------------+---------------|
| skill_input (InputLayer)        | (None, 371)            |             0 |
|---------------------------------+------------------------+---------------|
| hidden_1 (Dense)                | (None, 512)            |       190,464 |
|---------------------------------+------------------------+---------------|
| bn_1 (BatchNormalization)       | (None, 512)            |         2,048 |
|---------------------------------+------------------------+---------------|
| dropout_1 (Dropout)             | (None, 512)            |             0 |
|---------------------------------+------------------------+---------------|
| hidden_2 (Dense)                | (None, 256)            |       131,328 |
|---------------------------------+------------------------+---------------|
| bn_2 (BatchNormalization)       | (None, 256)            |         1,024 |
|---------------------------------+------------------------+---------------|
| dropout_2 (Dropout)             | (None, 256)            |             0 |
|---------------------------------+------------------------+---------------|
| hidden_3 (Dense)                | (None, 128)            |        32,896 |
|---------------------------------+------------------------+---------------|
| dropout_3 (Dropout)             | (None, 128)            |             0 |
|---------------------------------+------------------------+---------------|
| hidden_4 (Dense)                | (None, 64)             |         8,256 |
|---------------------------------+------------------------+---------------|
| career_output (Dense)           | (None, 41)             |         2,665 |
+--------------------------------------------------------------------------+
 Total params: 368,681 (1.41 MB)
 Trainable params: 367,145 (1.40 MB)
 Non-trainable params: 1,536 (6.00 KB)

[6/9] Training model...
Epoch 1/70

[1m  1/495[0m [37m====================[0m [1m20:26[0m 2s/step - accuracy: 0.0312 - loss: 3.8800
[1m  9/495[0m [37m====================[0m [1m3s[0m 7ms/step - accuracy: 0.0328 - loss: 3.9684  
…
